…
W1028 14:47:29.129204 43203 gpu_resources.cc:119] Please NOTE: device: 0, GPU Compute Capability: 8.6, Driver API Version: 12.2, Runtime API Version: 12.0
W1028 14:47:29.129990 43203 gpu_resources.cc:164] device: 0, cuDNN Version: 9.5.
(2000, 972) (2000, 972, 2)
Dataloading is over.
Namespace(lr=0.001, epochs=500, weight_decay=1e-05, model='Transolver_Irregular_Mesh', n_hidden=128, n_layers=8, n_heads=8, batch_size=1, gpu=3, max_grad_norm=0.1, downsample=5, mlp_ratio=1, dropout=0.0, ntrain=1000, unified_pos=0, ref=8, slice_num=64, eval=0, save_name='elas_Transolver', data_path='data/fno')
Model(
  (preprocess): MLP(
    (linear_pre): Sequential(
      (0): Linear(in_features=2, out_features=256, dtype=None)
      (1): GELU(approximate=False)
    )
    (linear_post): Linear(in_features=256, out_features=128, dtype=None)
    (linears): LayerList()
  )
  (blocks): LayerList(
    (0): Transolver_block(
      (ln_1): LayerNorm(normalized_shape=[128], epsilon=1e-05)
      (Attn): Physics_Attention_Irregular_Mesh(
        (softmax): Softmax(axis=-1)
        (dropout): Dropout(p=0.0, axis=None, mode=upscale_in_train)
        (in_project_x): Linear(in_features=128, out_features=128, dtype=None)
        (in_project_fx): Linear(in_features=128, out_features=128, dtype=None)
        (in_project_slice): Linear(in_features=16, out_features=64, dtype=None)
        (to_q): Linear(in_features=16, out_features=16, dtype=None)
        (to_k): Linear(in_features=16, out_features=16, dtype=None)
        (to_v): Linear(in_features=16, out_features=16, dtype=None)
        (to_out): Sequential(
          (0): Linear(in_features=128, out_features=128, dtype=None)
          (1): Dropout(p=0.0, axis=None, mode=upscale_in_train)
        )
      )
      (ln_2): LayerNorm(normalized_shape=[128], epsilon=1e-05)
      (mlp): MLP(
        (linear_pre): Sequential(
          (0): Linear(in_features=128, out_features=128, dtype=None)
          (1): GELU(approximate=False)
        )
        (linear_post): Linear(in_features=128, out_features=128, dtype=None)
        (linears): LayerList()
      )
    )
    (1): Transolver_block(
      (ln_1): LayerNorm(normalized_shape=[128], epsilon=1e-05)
      (Attn): Physics_Attention_Irregular_Mesh(
        (softmax): Softmax(axis=-1)
        (dropout): Dropout(p=0.0, axis=None, mode=upscale_in_train)
        (in_project_x): Linear(in_features=128, out_features=128, dtype=None)
        (in_project_fx): Linear(in_features=128, out_features=128, dtype=None)
        (in_project_slice): Linear(in_features=16, out_features=64, dtype=None)
        (to_q): Linear(in_features=16, out_features=16, dtype=None)
        (to_k): Linear(in_features=16, out_features=16, dtype=None)
        (to_v): Linear(in_features=16, out_features=16, dtype=None)
        (to_out): Sequential(
          (0): Linear(in_features=128, out_features=128, dtype=None)
          (1): Dropout(p=0.0, axis=None, mode=upscale_in_train)
        )
      )
      (ln_2): LayerNorm(normalized_shape=[128], epsilon=1e-05)
      (mlp): MLP(
        (linear_pre): Sequential(
          (0): Linear(in_features=128, out_features=128, dtype=None)
          (1): GELU(approximate=False)
        )
        (linear_post): Linear(in_features=128, out_features=128, dtype=None)
        (linears): LayerList()
      )
    )
    (2): Transolver_block(
      (ln_1): LayerNorm(normalized_shape=[128], epsilon=1e-05)
      (Attn): Physics_Attention_Irregular_Mesh(
        (softmax): Softmax(axis=-1)
        (dropout): Dropout(p=0.0, axis=None, mode=upscale_in_train)
        (in_project_x): Linear(in_features=128, out_features=128, dtype=None)
        (in_project_fx): Linear(in_features=128, out_features=128, dtype=None)
        (in_project_slice): Linear(in_features=16, out_features=64, dtype=None)
        (to_q): Linear(in_features=16, out_features=16, dtype=None)
        (to_k): Linear(in_features=16, out_features=16, dtype=None)
        (to_v): Linear(in_features=16, out_features=16, dtype=None)
        (to_out): Sequential(
          (0): Linear(in_features=128, out_features=128, dtype=None)
          (1): Dropout(p=0.0, axis=None, mode=upscale_in_train)
        )
      )
      (ln_2): LayerNorm(normalized_shape=[128], epsilon=1e-05)
      (mlp): MLP(
        (linear_pre): Sequential(
          (0): Linear(in_features=128, out_features=128, dtype=None)
          (1): GELU(approximate=False)
        )
        (linear_post): Linear(in_features=128, out_features=128, dtype=None)
        (linears): LayerList()
      )
    )
    (3): Transolver_block(
      (ln_1): LayerNorm(normalized_shape=[128], epsilon=1e-05)
      (Attn): Physics_Attention_Irregular_Mesh(
        (softmax): Softmax(axis=-1)
        (dropout): Dropout(p=0.0, axis=None, mode=upscale_in_train)
        (in_project_x): Linear(in_features=128, out_features=128, dtype=None)
        (in_project_fx): Linear(in_features=128, out_features=128, dtype=None)
        (in_project_slice): Linear(in_features=16, out_features=64, dtype=None)
        (to_q): Linear(in_features=16, out_features=16, dtype=None)
        (to_k): Linear(in_features=16, out_features=16, dtype=None)
        (to_v): Linear(in_features=16, out_features=16, dtype=None)
        (to_out): Sequential(
          (0): Linear(in_features=128, out_features=128, dtype=None)
          (1): Dropout(p=0.0, axis=None, mode=upscale_in_train)
        )
      )
      (ln_2): LayerNorm(normalized_shape=[128], epsilon=1e-05)
      (mlp): MLP(
        (linear_pre): Sequential(
          (0): Linear(in_features=128, out_features=128, dtype=None)
          (1): GELU(approximate=False)
        )
        (linear_post): Linear(in_features=128, out_features=128, dtype=None)
        (linears): LayerList()
      )
    )
    (4): Transolver_block(
      (ln_1): LayerNorm(normalized_shape=[128], epsilon=1e-05)
      (Attn): Physics_Attention_Irregular_Mesh(
        (softmax): Softmax(axis=-1)
        (dropout): Dropout(p=0.0, axis=None, mode=upscale_in_train)
        (in_project_x): Linear(in_features=128, out_features=128, dtype=None)
        (in_project_fx): Linear(in_features=128, out_features=128, dtype=None)
        (in_project_slice): Linear(in_features=16, out_features=64, dtype=None)
        (to_q): Linear(in_features=16, out_features=16, dtype=None)
        (to_k): Linear(in_features=16, out_features=16, dtype=None)
        (to_v): Linear(in_features=16, out_features=16, dtype=None)
        (to_out): Sequential(
          (0): Linear(in_features=128, out_features=128, dtype=None)
          (1): Dropout(p=0.0, axis=None, mode=upscale_in_train)
        )
      )
      (ln_2): LayerNorm(normalized_shape=[128], epsilon=1e-05)
      (mlp): MLP(
        (linear_pre): Sequential(
          (0): Linear(in_features=128, out_features=128, dtype=None)
          (1): GELU(approximate=False)
        )
        (linear_post): Linear(in_features=128, out_features=128, dtype=None)
        (linears): LayerList()
      )
    )
    (5): Transolver_block(
      (ln_1): LayerNorm(normalized_shape=[128], epsilon=1e-05)
      (Attn): Physics_Attention_Irregular_Mesh(
        (softmax): Softmax(axis=-1)
        (dropout): Dropout(p=0.0, axis=None, mode=upscale_in_train)
        (in_project_x): Linear(in_features=128, out_features=128, dtype=None)
        (in_project_fx): Linear(in_features=128, out_features=128, dtype=None)
        (in_project_slice): Linear(in_features=16, out_features=64, dtype=None)
        (to_q): Linear(in_features=16, out_features=16, dtype=None)
        (to_k): Linear(in_features=16, out_features=16, dtype=None)
        (to_v): Linear(in_features=16, out_features=16, dtype=None)
        (to_out): Sequential(
          (0): Linear(in_features=128, out_features=128, dtype=None)
          (1): Dropout(p=0.0, axis=None, mode=upscale_in_train)
        )
      )
      (ln_2): LayerNorm(normalized_shape=[128], epsilon=1e-05)
      (mlp): MLP(
        (linear_pre): Sequential(
          (0): Linear(in_features=128, out_features=128, dtype=None)
          (1): GELU(approximate=False)
        )
        (linear_post): Linear(in_features=128, out_features=128, dtype=None)
        (linears): LayerList()
      )
    )
    (6): Transolver_block(
      (ln_1): LayerNorm(normalized_shape=[128], epsilon=1e-05)
      (Attn): Physics_Attention_Irregular_Mesh(
        (softmax): Softmax(axis=-1)
        (dropout): Dropout(p=0.0, axis=None, mode=upscale_in_train)
        (in_project_x): Linear(in_features=128, out_features=128, dtype=None)
        (in_project_fx): Linear(in_features=128, out_features=128, dtype=None)
        (in_project_slice): Linear(in_features=16, out_features=64, dtype=None)
        (to_q): Linear(in_features=16, out_features=16, dtype=None)
        (to_k): Linear(in_features=16, out_features=16, dtype=None)
        (to_v): Linear(in_features=16, out_features=16, dtype=None)
        (to_out): Sequential(
          (0): Linear(in_features=128, out_features=128, dtype=None)
          (1): Dropout(p=0.0, axis=None, mode=upscale_in_train)
        )
      )
      (ln_2): LayerNorm(normalized_shape=[128], epsilon=1e-05)
      (mlp): MLP(
        (linear_pre): Sequential(
          (0): Linear(in_features=128, out_features=128, dtype=None)
          (1): GELU(approximate=False)
        )
        (linear_post): Linear(in_features=128, out_features=128, dtype=None)
        (linears): LayerList()
      )
    )
    (7): Transolver_block(
      (ln_1): LayerNorm(normalized_shape=[128], epsilon=1e-05)
      (Attn): Physics_Attention_Irregular_Mesh(
        (softmax): Softmax(axis=-1)
        (dropout): Dropout(p=0.0, axis=None, mode=upscale_in_train)
        (in_project_x): Linear(in_features=128, out_features=128, dtype=None)
        (in_project_fx): Linear(in_features=128, out_features=128, dtype=None)
        (in_project_slice): Linear(in_features=16, out_features=64, dtype=None)
        (to_q): Linear(in_features=16, out_features=16, dtype=None)
        (to_k): Linear(in_features=16, out_features=16, dtype=None)
        (to_v): Linear(in_features=16, out_features=16, dtype=None)
        (to_out): Sequential(
          (0): Linear(in_features=128, out_features=128, dtype=None)
          (1): Dropout(p=0.0, axis=None, mode=upscale_in_train)
        )
      )
      (ln_2): LayerNorm(normalized_shape=[128], epsilon=1e-05)
      (mlp): MLP(
        (linear_pre): Sequential(
          (0): Linear(in_features=128, out_features=128, dtype=None)
          (1): GELU(approximate=False)
        )
        (linear_post): Linear(in_features=128, out_features=128, dtype=None)
        (linears): LayerList()
      )
      (ln_3): LayerNorm(normalized_shape=[128], epsilon=1e-05)
      (mlp2): Linear(in_features=128, out_features=1, dtype=None)
    )
  )
)
Total Trainable Params: 713665
Epoch 0 Train loss : 0.50527
rel_err : 0.4928458055853844
save model
Epoch 1 Train loss : 0.49547
rel_err : 0.4930387295782566
Epoch 2 Train loss : 0.41779
rel_err : 0.3417572039365768
Epoch 3 Train loss : 0.34173
rel_err : 0.31474135756492616
Epoch 4 Train loss : 0.31910
rel_err : 0.33272456996142863
Epoch 5 Train loss : 0.30576
…
